…
2022-07-07 02:27:31.335002: W tensorflow/core/framework/cpu_allocator_impl.cc:82] Allocation of 34133760 exceeds 10% of free system memory.
Kata acak:
 RED
2022-07-07 02:27:38.112918: I tensorflow/core/platform/default/subprocess.cc:304] Start cannot spawn child process: No such file or directory
Kata setelah embed dengan USE:
[ … Panjang dari kata setelah embedding: 512
Model: "model_2_Conv1D_USE_embed"
_________________________________________________________________
 Layer (type)                Output Shape              Param #
=================================================================
 layer_input (InputLayer)    [(None,)]                 0
 universal_sentence_encoder   (None, 512)              256797824
 (KerasLayer)
 tf.expand_dims (TFOpLambda)  (None, 512, 1)           0
 conv1d (Conv1D)             (None, 512, 64)           384
 layer_max_pooling (GlobalMa  (None, 64)               0
 xPooling1D)
 layer_output (Dense)        (None, 1)                 65
=================================================================
Total params: 256,798,273
Trainable params: 449
Non-trainable params: 256,797,824
_________________________________________________________________