…
1419/1419 [==============================] - 128s 90ms/step - loss: 0.0144 - accuracy: 0.9960 - val_loss: 0.0260 - val_accuracy: 0.9937 - _timestamp: 1657125507.0000 - _runtime: 643.0000









355/355 [==============================] - 19s 55ms/step - loss: 0.0260 - accuracy: 0.9937






355/355 [==============================] - 12s 34ms/step
Kata acak:
 BLACK
Kata setelah embed dengan USE:
[… Panjang dari kata setelah embedding: 512
Model: "model_2_Conv1D_USE_embed"
_________________________________________________________________
 Layer (type)                Output Shape              Param #
=================================================================
 layer_input (InputLayer)    [(None,)]                 0
 universal_sentence_encoder   (None, 512)              256797824
 (KerasLayer)
 tf.expand_dims (TFOpLambda)  (None, 512, 1)           0
 conv1d (Conv1D)             (None, 512, 64)           384
 layer_max_pooling (GlobalMa  (None, 64)               0
 xPooling1D)
 layer_output (Dense)        (None, 1)                 65
=================================================================
Total params: 256,798,273
Trainable params: 449
Non-trainable params: 256,797,824
_________________________________________________________________