…
 ( inputs = inputs , outputs = outputs , name = 'model_1_Conv1D_embed' ) # Compile model_1 . compile ( loss = tf . keras . losses . BinaryCrossentropy (), optimizer = tf . keras . optimizers . Adam (), metrics = [ 'accuracy' ]) 1 2 # Ringkasa model_1 model_1 . summary () 1 2 3 4 5 6 7 8 9 10 11 12 13 14 15 16 17 18 19 20 21 22 23 24 Model: \"model_1_Conv1D_embed\" _________________________________________________________________ Layer (type) Output Shape Param # ================================================================= layer_input (InputLayer) [(None, 1)] 0 text_vectorization (TextVec (None, 1) 0 torization) layer_token_embedding (Embe (None, 1, 64) 156672 dding) conv1d (Conv1D) (None, 1, 64) 20544 layer_max_pool (GlobalMaxPo (None, 64) 0 oling1D) layer_output (Dense) (None, 1) 65 ================================================================= Total params: 177,281 Trainable params: 177,281 Non-trainable params: 0 _________________________________________________________________ 1 2 3 # Plot model_1 from tensorflow.keras.utils import plot_model # type: ignore plot_model ( model_1 , show_shapes = True ) 1 2 3 4 5 6 7 8 9 10 11 12 13 14 15 # import WandbCallback from wandb
…
1D ( name = 'layer_max_pooling' )( x ) outputs = layers . Dense ( 1 , activation = 'sigmoid' , name = 'layer_output' )( x ) model_2 = tf . keras . Model ( inputs = inputs , outputs = outputs , name = 'model_2_Conv1D_USE_embed' ) 1 2 # Ringkasan model_2 model_2 . summary () 1 2 3 4 5 6 7 8 9 10 11 12 13 14 15 16 17 18 19 20 21 22 23 Model: \"model_2_Conv1D_USE_embed\" _________________________________________________________________ Layer (type) Output Shape Param # ================================================================= layer_input (InputLayer) [(None,)] 0 universal_sentence_encoder (None, 512) 256797824 (KerasLayer) tf.expand_dims (TFOpLambda) (None, 512, 1) 0 conv1d (Conv1D) (None, 512, 64) 384 layer_max_pooling (GlobalMa (None, 64) 0 xPooling1D) layer_output (Dense) (None, 1) 65 ================================================================= Total params: 256,798,273 Trainable params: 449 Non-trainable params: 256,797,824 _________________________________________________________________ 1 2 # Plot model_2 plot_model ( model_2 , show_shapes = True ) 1 2 3 4 # Compile model_2 model_2 . compile ( loss = tf . keras . losses . BinaryCrossentropy (), optimizer = tf . keras .
…
