…
ame='layer_max_pool')(x) outputs = layers.Dense(1, activation='sigmoid', name='layer_output')(x) model_1 = tf.keras.Model(inputs, outputs, name='model_1_Conv1D_embed') # Compile model_1.compile(loss=tf.keras.losses.BinaryCrossentropy(), optimizer=tf.keras.optimizers.Adam(), metrics=['accuracy']) # Ringkasan model_1 model_1.summary() Model: \"model_1_Conv1D_embed\" _________________________________________________________________ Layer (type) Output Shape Param # ================================================================= layer_input (InputLayer) [(None, 1)] 0 text_vectorization (TextVec (None, 1) 0 torization) layer_token_embedding (Embe (None, 1, 64) 14464 dding) conv1d (Conv1D) (None, 1, 64) 20544 layer_max_pool (GlobalMaxPo (None, 64) 0 oling1D) layer_output (Dense) (None, 1) 65 ================================================================= Total params: 35,073 Trainable params: 35,073 Non-trainable params: 0 _________________________________________________________________ # Plot model_1 from tensorflow.keras.utils import plot_model plot_model(model_1, show_shapes=True) # import WandbCallback from wandb.keras import WandbCallback # Setup wandb init dan config wb.init
…
 activation='relu', name='layer_conv1d')(tf.expand_dims(layer_embed_pretrained, axis=-1)) x = layers.GlobalMaxPooling1D(name='layer_max_pooling')(x) outputs = layers.Dense(1, activation='sigmoid', name='layer_output')(x) model_2 = tf.keras.Model(inputs, outputs, name='model_2_Conv1D_USE_embed') # Ringkasan model_2 model_2.summary() Model: \"model_2_Conv1D_USE_embed\" _________________________________________________________________ Layer (type) Output Shape Param # ================================================================= layer_input (InputLayer) [(None,)] 0 universal_sentence_encoder (None, 512) 256797824 (KerasLayer) tf.expand_dims (TFOpLambda) (None, 512, 1) 0 layer_conv1d (Conv1D) (None, 508, 64) 384 layer_max_pooling (GlobalMa (None, 64) 0 xPooling1D) layer_output (Dense) (None, 1) 65 ================================================================= Total params: 256,798,273 Trainable params: 449 Non-trainable params: 256,797,824 _________________________________________________________________ # Plot model_2 plot_model(model_2, show_shapes=True) # Compile model_2 model_2.compile(loss=tf.keras.losses.BinaryCrossentropy(), optimizer=tf.keras.optimizers.Adam(), metrics=['accurac
…
