…








1419/1419 [==============================] - 108s 76ms/step - loss: 0.0308 - accuracy: 0.9936































1419/1419 [==============================] - 63s 44ms/step
Kata acak:
 PINK
Kata setelah embed dengan USE:
[… Panjang dari kata setelah embedding: 512
Model: "model_2_Conv1D_USE_embed"
_________________________________________________________________
 Layer (type)                Output Shape              Param #
=================================================================
 layer_input (InputLayer)    [(None,)]                 0
 universal_sentence_encoder   (None, 512)              256797824
 (KerasLayer)
 tf.expand_dims (TFOpLambda)  (None, 512, 1)           0
 conv1d (Conv1D)             (None, 512, 64)           384
 layer_max_pooling (GlobalMa  (None, 64)               0
 xPooling1D)
 layer_output (Dense)        (None, 1)                 65
=================================================================
Total params: 256,798,273
Trainable params: 449
Non-trainable params: 256,797,824
_________________________________________________________________